{"format": "layers-model", "generatedBy": "keras v2.15.0", "convertedBy": "TensorFlow.js Converter v4.11.0", "modelTopology": {"keras_version": "2.15.0", "backend": "tensorflow", "model_config": {"class_name": "Sequential", "config": {"name": "sequential", "layers": [{"class_name": "InputLayer", "config": {"batch_input_shape": [null, 30, 126], "dtype": "float32", "sparse": false, "ragged": false, "name": "lstm_input"}}, {"class_name": "LSTM", "config": {"name": "lstm", "trainable": true, "dtype": "float32", "batch_input_shape": [null, 30, 126], "return_sequences": true, "return_state": false, "go_backwards": false, "stateful": false, "unroll": false, "time_major": false, "units": 128, "activation": "relu", "recurrent_activation": "sigmoid", "use_bias": true, "kernel_initializer": {"module": "keras.initializers", "class_name": "GlorotUniform", "config": {"seed": null}, "registered_name": null}, "recurrent_initializer": {"module": "keras.initializers", "class_name": "Orthogonal", "config": {"gain": 1.0, "seed": null}, "registered_name": null}, "bias_initializer": {"module": "keras.initializers", "class_name": "Zeros", "config": {}, "registered_name": null}, "unit_forget_bias": true, "kernel_regularizer": null, "recurrent_regularizer": null, "bias_regularizer": null, "activity_regularizer": null, "kernel_constraint": null, "recurrent_constraint": null, "bias_constraint": null, "dropout": 0.0, "recurrent_dropout": 0.0, "implementation": 2}}, {"class_name": "BatchNormalization", "config": {"name": "batch_normalization", "trainable": true, "dtype": "float32", "axis": [2], "momentum": 0.99, "epsilon": 0.001, "center": true, "scale": true, "beta_initializer": {"module": "keras.initializers", "class_name": "Zeros", "config": {}, "registered_name": null}, "gamma_initializer": {"module": "keras.initializers", "class_name": "Ones", "config": {}, "registered_name": null}, "moving_mean_initializer": {"module": "keras.initializers", "class_name": "Zeros", "config": {}, "registered_name": null}, "moving_variance_initializer": {"module": "keras.initializers", "class_name": "Ones", "config": {}, "registered_name": null}, "beta_regularizer": null, "gamma_regularizer": null, "beta_constraint": null, "gamma_constraint": null}}, {"class_name": "Dropout", "config": {"name": "dropout", "trainable": true, "dtype": "float32", "rate": 0.3, "noise_shape": null, "seed": null}}, {"class_name": "LSTM", "config": {"name": "lstm_1", "trainable": true, "dtype": "float32", "return_sequences": false, "return_state": false, "go_backwards": false, "stateful": false, "unroll": false, "time_major": false, "units": 64, "activation": "relu", "recurrent_activation": "sigmoid", "use_bias": true, "kernel_initializer": {"module": "keras.initializers", "class_name": "GlorotUniform", "config": {"seed": null}, "registered_name": null}, "recurrent_initializer": {"module": "keras.initializers", "class_name": "Orthogonal", "config": {"gain": 1.0, "seed": null}, "registered_name": null}, "bias_initializer": {"module": "keras.initializers", "class_name": "Zeros", "config": {}, "registered_name": null}, "unit_forget_bias": true, "kernel_regularizer": null, "recurrent_regularizer": null, "bias_regularizer": null, "activity_regularizer": null, "kernel_constraint": null, "recurrent_constraint": null, "bias_constraint": null, "dropout": 0.0, "recurrent_dropout": 0.0, "implementation": 2}}, {"class_name": "BatchNormalization", "config": {"name": "batch_normalization_1", "trainable": true, "dtype": "float32", "axis": [1], "momentum": 0.99, "epsilon": 0.001, "center": true, "scale": true, "beta_initializer": {"module": "keras.initializers", "class_name": "Zeros", "config": {}, "registered_name": null}, "gamma_initializer": {"module": "keras.initializers", "class_name": "Ones", "config": {}, "registered_name": null}, "moving_mean_initializer": {"module": "keras.initializers", "class_name": "Zeros", "config": {}, "registered_name": null}, "moving_variance_initializer": {"module": "keras.initializers", "class_name": "Ones", "config": {}, "registered_name": null}, "beta_regularizer": null, "gamma_regularizer": null, "beta_constraint": null, "gamma_constraint": null}}, {"class_name": "Dropout", "config": {"name": "dropout_1", "trainable": true, "dtype": "float32", "rate": 0.3, "noise_shape": null, "seed": null}}, {"class_name": "Dense", "config": {"name": "dense", "trainable": true, "dtype": "float32", "units": 64, "activation": "relu", "use_bias": true, "kernel_initializer": {"module": "keras.initializers", "class_name": "GlorotUniform", "config": {"seed": null}, "registered_name": null}, "bias_initializer": {"module": "keras.initializers", "class_name": "Zeros", "config": {}, "registered_name": null}, "kernel_regularizer": null, "bias_regularizer": null, "activity_regularizer": null, "kernel_constraint": null, "bias_constraint": null}}, {"class_name": "Dropout", "config": {"name": "dropout_2", "trainable": true, "dtype": "float32", "rate": 0.2, "noise_shape": null, "seed": null}}, {"class_name": "Dense", "config": {"name": "dense_1", "trainable": true, "dtype": "float32", "units": 5, "activation": "softmax", "use_bias": true, "kernel_initializer": {"module": "keras.initializers", "class_name": "GlorotUniform", "config": {"seed": null}, "registered_name": null}, "bias_initializer": {"module": "keras.initializers", "class_name": "Zeros", "config": {}, "registered_name": null}, "kernel_regularizer": null, "bias_regularizer": null, "activity_regularizer": null, "kernel_constraint": null, "bias_constraint": null}}]}}, "training_config": {"loss": "sparse_categorical_crossentropy", "metrics": [[{"class_name": "MeanMetricWrapper", "config": {"name": "accuracy", "dtype": "float32", "fn": "sparse_categorical_accuracy"}}]], "weighted_metrics": null, "loss_weights": null, "optimizer_config": {"class_name": "Custom>Adam", "config": {"name": "Adam", "weight_decay": null, "clipnorm": null, "global_clipnorm": null, "clipvalue": null, "use_ema": false, "ema_momentum": 0.99, "ema_overwrite_frequency": null, "jit_compile": false, "is_legacy_optimizer": false, "learning_rate": 0.0010000000474974513, "beta_1": 0.9, "beta_2": 0.999, "epsilon": 1e-07, "amsgrad": false}}}}, "weightsManifest": [{"paths": ["group1-shard1of1.bin"], "weights": [{"name": "batch_normalization/gamma", "shape": [128], "dtype": "float32", "quantization": {"dtype": "uint8", "min": 0.9811521768569946, "scale": 0.00015300255195767272, "original_dtype": "float32"}}, {"name": "batch_normalization/beta", "shape": [128], "dtype": "float32", "quantization": {"dtype": "uint8", "min": -0.016947161720371716, "scale": 0.0001554785478933185, "original_dtype": "float32"}}, {"name": "batch_normalization/moving_mean", "shape": [128], "dtype": "float32", "quantization": {"dtype": "uint8", "min": -0.0, "scale": 0.001875748821333343, "original_dtype": "float32"}}, {"name": "batch_normalization/moving_variance", "shape": [128], "dtype": "float32", "quantization": {"dtype": "uint8", "min": 0.12116877734661102, "scale": 0.000668075914476432, "original_dtype": "float32"}}, {"name": "batch_normalization_1/gamma", "shape": [64], "dtype": "float32", "quantization": {"dtype": "uint8", "min": 0.9822388887405396, "scale": 0.00029841965320063574, "original_dtype": "float32"}}, {"name": "batch_normalization_1/beta", "shape": [64], "dtype": "float32", "quantization": {"dtype": "uint8", "min": -0.052501541142370184, "scale": 0.00037501100815978705, "original_dtype": "float32"}}, {"name": "batch_normalization_1/moving_mean", "shape": [64], "dtype": "float32", "quantization": {"dtype": "uint8", "min": 0.06829631328582764, "scale": 0.006444988063737458, "original_dtype": "float32"}}, {"name": "batch_normalization_1/moving_variance", "shape": [64], "dtype": "float32", "quantization": {"dtype": "uint8", "min": 0.13197454810142517, "scale": 0.03969364037700728, "original_dtype": "float32"}}, {"name": "dense/kernel", "shape": [64, 64], "dtype": "float32", "quantization": {"dtype": "uint8", "min": -0.25779792210635016, "scale": 0.0020299048984751982, "original_dtype": "float32"}}, {"name": "dense/bias", "shape": [64], "dtype": "float32", "quantization": {"dtype": "uint8", "min": -0.029810901512117946, "scale": 0.00029810901512117944, "original_dtype": "float32"}}, {"name": "dense_1/kernel", "shape": [64, 5], "dtype": "float32", "quantization": {"dtype": "uint8", "min": -0.3329953810747932, "scale": 0.002601526414646822, "original_dtype": "float32"}}, {"name": "dense_1/bias", "shape": [5], "dtype": "float32", "quantization": {"dtype": "uint8", "min": -0.03295077441954145, "scale": 0.00025346749553493427, "original_dtype": "float32"}}, {"name": "lstm/lstm_cell/kernel", "shape": [126, 512], "dtype": "float32", "quantization": {"dtype": "uint8", "min": -0.1187293119874655, "scale": 0.0009348764723422481, "original_dtype": "float32"}}, {"name": "lstm/lstm_cell/recurrent_kernel", "shape": [128, 512], "dtype": "float32", "quantization": {"dtype": "uint8", "min": -0.18322219947973886, "scale": 0.0015396823485692341, "original_dtype": "float32"}}, {"name": "lstm/lstm_cell/bias", "shape": [512], "dtype": "float32", "quantization": {"dtype": "uint8", "min": -0.01611266066046322, "scale": 0.004028165165115805, "original_dtype": "float32"}}, {"name": "lstm_1/lstm_cell/kernel", "shape": [128, 256], "dtype": "float32", "quantization": {"dtype": "uint8", "min": -0.1569550682516659, "scale": 0.00122621147071614, "original_dtype": "float32"}}, {"name": "lstm_1/lstm_cell/recurrent_kernel", "shape": [64, 256], "dtype": "float32", "quantization": {"dtype": "uint8", "min": -0.2277917693643009, "scale": 0.0018671456505270564, "original_dtype": "float32"}}, {"name": "lstm_1/lstm_cell/bias", "shape": [256], "dtype": "float32", "quantization": {"dtype": "uint8", "min": -0.020380024633863396, "scale": 0.004076004926772679, "original_dtype": "float32"}}]}]}